…
1.0, mixup=0.0, copy_paste=0.0\n","\u001b[34m\u001b[1mWeights \u0026 Biases: \u001b[0mrun 'pip install wandb' to automatically track and visualize YOLOv5 🚀 runs (RECOMMENDED)\n","\u001b[34m\u001b[1mTensorBoard: \u001b[0mStart with 'tensorboard --logdir runs/train', view at http://localhost:6006/\n","Downloading https://ultralytics.com/assets/Arial.ttf to /root/.config/Ultralytics/Arial.ttf...\n","100% 755k/755k [00:00\u003c00:00, 40.1MB/s]\n","\n","                 from  n    params  module                                  arguments                     \n","  0                -1  1      3520  models.common.Focus                     [3, 32, 3]                    \n","  1                -1  1     18560  models.common.Conv                      [32, 64, 3, 2]                \n","  2                -1  1     19904  models.common.BottleneckCSP             [64, 64, 1]                   \n","  3                -1  1     73984  models.common.Conv                      [64, 128, 3, 2]               \n","  4                -1  3    161152  models.common.BottleneckCSP             [128, 128, 3]                 \n","  5                -1  1    295424  models.common.Conv                      [128, 256, 3, 2]              \n","  6                -1  3    641792  models.common.BottleneckCSP             [256, 256, 3]                 \n","  7                -1  1   1180672  models.common.Conv                      [256, 512, 3, 2]              \n","  8                -1  1    656896  models.common.SPP                       [512, 512, [5, 9, 13]]        \n","  9                -1  1   1248768  models.common.BottleneckCSP             [512, 512, 1, False]          \n"," 10                -1  1    131584  models.common.Conv                      [512, 256, 1, 1]              \n"," 11                -1  1         0  torch.nn.modules.upsampling.Upsample    [None, 2, 'nearest']          \n"," 12           [-1, 6]  1         0  models.common.Concat                    [1]                           \n"," 13                -1  1    378624  models.common.BottleneckCSP             [512, 256, 1, False]          \n"," 14                -1  1     33024  models.common.Conv                      [256, 128, 1, 1]              \n"," 15                -1  1         0  torch.nn.modules.upsampling.Upsample    [None, 2, 'nearest']          \n"," 16           [-1, 4]  1         0  models.common.Concat                    [1]                           \n"," 17                -1  1     95104  models.common.BottleneckCSP             [256, 128, 1, False]          \n"," 18                -1  1    147712  models.common.Conv                      [128, 128, 3, 2]              \n"," 19          [-1, 14]  1         0  models.common.Concat                    [1]                           \n"," 20                -1  1    313088  models.common.BottleneckCSP             [256, 256, 1, False]          \n"," 21                -1  1    590336  models.common.Conv                      [256, 256, 3, 2]              \n"," 22          [-1, 10]  1         0  models.common.Concat                    [1]                           \n"," 23                -1  1   1248768  models.common.BottleneckCSP             [512, 512, 1, False]          \n"," 24      [17, 20, 23]  1     18879  models.yolo.Detect                      [2, [[10, 13, 16, 30, 33, 23], [30, 61, 62, 45, 59, 119], [116, 90, 156, 198, 373, 326]], [128, 256, 512]]\n","custom_YOLOv5s summary: 283 layers, 7257791 parameters, 7257791 gradients, 16.9 GFLOPs\n","\n","\u001b[34m\u001b[1mAMP: \u001b[0mchecks passed ✅\n","\u001b[34m\u001b[1mAutoBatch: 
…
